…
          "shell.execute_reply.started": "2024-04-30T00:09:40.627020Z",
          "shell.execute_reply": "2024-04-30T00:09:40.794285Z"
        },
        "trusted": true,
        "id": "mMZ5i9MIs7fB",
        "outputId": "8919fadb-14b9-44f9-e6af-ba108a068940"
      },
      "execution_count": null,
      "outputs": [
        {
          "name": "stdout",
          "text": "Model: \"sequential\"\n_________________________________________________________________\nLayer (type)                 Output Shape              Param #   \n=================================================================\nconv2d (Conv2D)              (None, 16, 8, 32)         320       \n_________________________________________________________________\nmax_pooling2d (MaxPooling2D) (None, 8, 4, 32)          0         \n_________________________________________________________________\nconv2d_1 (Conv2D)            (None, 8, 4, 64)          18496     \n_________________________________________________________________\nmax_pooling2d_1 (MaxPooling2 (None, 4, 2, 64)          0         \n_________________________________________________________________\nflatten (Flatten)            (None, 512)               0         \n_________________________________________________________________\ndense (Dense)                (None, 32)                16416     \n_________________________________________________________________\ndense_1 (Dense)              (None, 1)                 33        \n=================================================================\nTotal params: 35,265\nTrainable params: 35,265\nNon-trainable params: 0\n_________________________________________________________________\n",
          "output_type": "stream"
        }
      ]
    },
    {
      "cell_type": "code",
      "source": [
        "model.compile(optimizer='adam', loss='binary_crossentropy', metrics=['accuracy'])"
…
          "shell.execute_reply.started": "2024-04-30T00:11:54.854136Z",
          "shell.execute_reply": "2024-04-30T00:11:54.861050Z"
        },
        "trusted": true,
        "id": "WlqbEUsys7fK",
        "outputId": "788f8c45-63d5-4c22-fc9f-79573ee9be0e"
      },
      "execution_count": null,
      "outputs": [
        {
          "name": "stdout",
          "text": "Model: \"sequential_2\"\n_________________________________________________________________\nLayer (type)                 Output Shape              Param #   \n=================================================================\nconv2d_4 (Conv2D)            (None, 16, 8, 32)         320       \n_________________________________________________________________\nmax_pooling2d_4 (MaxPooling2 (None, 8, 4, 32)          0         \n_________________________________________________________________\nconv2d_5 (Conv2D)            (None, 8, 4, 64)          18496     \n_________________________________________________________________\nmax_pooling2d_5 (MaxPooling2 (None, 4, 2, 64)          0         \n_________________________________________________________________\nconv2d_6 (Conv2D)            (None, 4, 2, 64)          36928     \n_________________________________________________________________\nup_sampling2d (UpSampling2D) (None, 8, 4, 64)          0         \n_________________________________________________________________\nconv2d_7 (Conv2D)            (None, 8, 4, 32)          18464     \n_________________________________________________________________\nup_sampling2d_1 (UpSampling2 (None, 16, 8, 32)         0         \n_________________________________________________________________\nconv2d_8 (Conv2D)            (None, 16, 8, 1)          289       \n=================================================================\nTotal params: 74,497\nTrainable params: 74,497\nNon-trainable params: 0\n_________________________________________________________________\n",
          "output_type": "stream"
        }
      ]
    },
    {
      "cell_type": "code",
      "source": [
        "history = model.fit(X_happy,X_happy,epochs=100)"
      ],
      "metadata": {
…
        {
          "name": "stdout",
          "text": "Model: \"model\"\n__________________________________________________________________________________________________\nLayer (type)                    Output Shape         Param #     Connected to                     \n==================================================================================================\ninput_4 (InputLayer)            [(None, 16, 8, 1)]   0                                            \n__________________________________________________________________________________________________\nconv2d_9 (Conv2D)               (None, 16, 8, 32)    320         input_4[0][0]                    \n__________________________________________________________________________________________________\nmax_pooling2d_6 (MaxPooling2D)  (None, 8, 4, 32)     0           conv2d_9[0][0]                   \n__________________________________________________________________________________________________\nconv2d_10 (Conv2D)              (None, 8, 4, 64)     18496       max_pooling2d_6[0][0]            \n__________________________________________________________________________________________________\nmax_pooling2d_7 (MaxPooling2D)  (None, 4, 2, 64)     0           conv2d_10[0][0]                  \n__________________________________________________________________________________________________\nflatten_2 (Flatten)             (None, 512)          0           max_pooling2d_7[0][0]            \n__________________________________________________________________________________________________\nz_mean (Dense)                  (None, 128)          65664       flatten_2[0][0]                  \n__________________________________________________________________________________________________\nz_log_var (Dense)               (None, 128)          65664       flatten_2[0][0]                  \n__________________________________________________________________________________________________\nsampling (Sampling)             (None, 128)          0           z_mean[0][0]                     \n                                                                 z_log_var[0][0]                  \n__________________________________________________________________________________________________\ndense_4 (Dense)                 (None, 512)          66048       sampling[0][0]                   \n__________________________________________________________________________________________________\nreshape (Reshape)               (None, 4, 2, 64)     0           dense_4[0][0]                    \n__________________________________________________________________________________________________\nup_sampling2d_2 (UpSampling2D)  (None, 8, 4, 64)     0           reshape[0][0]                    \n__________________________________________________________________________________________________\nconv2d_11 (Conv2D)              (None, 8, 4, 64)     36928       up_sampling2d_2[0][0]            \n__________________________________________________________________________________________________\nup_sampling2d_3 (UpSampling2D)  (None, 16, 8, 64)    0           conv2d_11[0][0]                  \n__________________________________________________________________________________________________\nconv2d_12 (Conv2D)              (None, 16, 8, 32)    18464       up_sampling2d_3[0][0]            \n__________________________________________________________________________________________________\nconv2d_13 (Conv2D)              (None, 16, 8, 1)     289         conv2d_12[0][0]                  \n==================================================================================================\nTotal params: 271,873\nTrainable params: 271,873\nNon-trainable params: 0\n__________________________________________________________________________________________________\n",
          "output_type": "stream"
        }
      ]
    },
    {
      "cell_type": "code",
…
        "trusted": true,
        "id": "_l4BMTJHs7fQ",
        "outputId": "b04dc135-6477-4dd8-b39e-876f7cb67f97"
      },
      "execution_count": null,
      "outputs": [
        {
          "name": "stdout",
          "text": "Model: \"model_1\"\n_________________________________________________________________\nLayer (type)                 Output Shape              Param #   \n=================================================================\ninput_4 (InputLayer)         [(None, 16, 8, 1)]        0         \n_________________________________________________________________\nconv2d_9 (Conv2D)            (None, 16, 8, 32)         320       \n_________________________________________________________________\nmax_pooling2d_6 (MaxPooling2 (None, 8, 4, 32)          0         \n_________________________________________________________________\nconv2d_10 (Conv2D)           (None, 8, 4, 64)          18496     \n_________________________________________________________________\nmax_pooling2d_7 (MaxPooling2 (None, 4, 2, 64)          0         \n_________________________________________________________________\nflatten_2 (Flatten)          (None, 512)               0         \n_________________________________________________________________\nz_mean (Dense)               (None, 128)               65664     \n=================================================================\nTotal params: 84,480\nTrainable params: 84,480\nNon-trainable params: 0\n_________________________________________________________________\n",
          "output_type": "stream"
        }
      ]
    },
    {
      "cell_type": "code",
      "source": [
        "z_mean = var_encoder.predict(X_sc)"
      ],
      "metadata": {
…
